#loc = loc("/home/zeus/miniconda3/envs/cloudspace/lib/python3.11/site-packages/unsloth/kernels/rms_layernorm.py":58:0)
#loc1 = loc(unknown)
module {
  tt.func public @_rms_layernorm_backward(%arg0: !tt.ptr<f16> {tt.divisibility = 16 : i32} loc("/home/zeus/miniconda3/envs/cloudspace/lib/python3.11/site-packages/unsloth/kernels/rms_layernorm.py":58:0), %arg1: i32 {tt.divisibility = 16 : i32} loc("/home/zeus/miniconda3/envs/cloudspace/lib/python3.11/site-packages/unsloth/kernels/rms_layernorm.py":58:0), %arg2: !tt.ptr<f16> {tt.divisibility = 16 : i32} loc("/home/zeus/miniconda3/envs/cloudspace/lib/python3.11/site-packages/unsloth/kernels/rms_layernorm.py":58:0), %arg3: i32 {tt.divisibility = 16 : i32} loc("/home/zeus/miniconda3/envs/cloudspace/lib/python3.11/site-packages/unsloth/kernels/rms_layernorm.py":58:0), %arg4: !tt.ptr<f16> {tt.divisibility = 16 : i32} loc("/home/zeus/miniconda3/envs/cloudspace/lib/python3.11/site-packages/unsloth/kernels/rms_layernorm.py":58:0), %arg5: i32 {tt.divisibility = 16 : i32} loc("/home/zeus/miniconda3/envs/cloudspace/lib/python3.11/site-packages/unsloth/kernels/rms_layernorm.py":58:0), %arg6: !tt.ptr<f16> {tt.divisibility = 16 : i32} loc("/home/zeus/miniconda3/envs/cloudspace/lib/python3.11/site-packages/unsloth/kernels/rms_layernorm.py":58:0), %arg7: !tt.ptr<f32> {tt.divisibility = 16 : i32} loc("/home/zeus/miniconda3/envs/cloudspace/lib/python3.11/site-packages/unsloth/kernels/rms_layernorm.py":58:0), %arg8: i32 {tt.divisibility = 16 : i32} loc("/home/zeus/miniconda3/envs/cloudspace/lib/python3.11/site-packages/unsloth/kernels/rms_layernorm.py":58:0), %arg9: f32 loc("/home/zeus/miniconda3/envs/cloudspace/lib/python3.11/site-packages/unsloth/kernels/rms_layernorm.py":58:0)) attributes {noinline = false} {
    %cst = arith.constant dense<0.000000e+00> : tensor<4096xf16> loc(#loc1)
    %0 = tt.get_program_id x : i32 loc(#loc2)
    %1 = tt.make_range {end = 4096 : i32, start = 0 : i32} : tensor<4096xi32> loc(#loc3)
    %2 = tt.splat %arg8 : i32 -> tensor<4096xi32> loc(#loc4)
    %3 = arith.cmpi slt, %1, %2 : tensor<4096xi32> loc(#loc4)
    %4 = arith.muli %0, %arg1 : i32 loc(#loc5)
    %5 = tt.addptr %arg0, %4 : !tt.ptr<f16>, i32 loc(#loc6)
    %6 = arith.muli %0, %arg5 : i32 loc(#loc7)
    %7 = tt.addptr %arg4, %6 : !tt.ptr<f16>, i32 loc(#loc8)
    %8 = tt.addptr %arg7, %0 : !tt.ptr<f32>, i32 loc(#loc9)
    %9 = tt.splat %5 : !tt.ptr<f16> -> tensor<4096x!tt.ptr<f16>> loc(#loc10)
    %10 = tt.addptr %9, %1 : tensor<4096x!tt.ptr<f16>>, tensor<4096xi32> loc(#loc10)
    %11 = tt.load %10, %3, %cst : tensor<4096x!tt.ptr<f16>> loc(#loc11)
    %12 = arith.extf %11 : tensor<4096xf16> to tensor<4096xf32> loc(#loc12)
    %13 = tt.splat %7 : !tt.ptr<f16> -> tensor<4096x!tt.ptr<f16>> loc(#loc13)
    %14 = tt.addptr %13, %1 : tensor<4096x!tt.ptr<f16>>, tensor<4096xi32> loc(#loc13)
    %15 = tt.load %14, %3, %cst : tensor<4096x!tt.ptr<f16>> loc(#loc14)
    %16 = arith.extf %15 : tensor<4096xf16> to tensor<4096xf32> loc(#loc15)
    %17 = tt.splat %arg6 : !tt.ptr<f16> -> tensor<4096x!tt.ptr<f16>> loc(#loc16)
    %18 = tt.addptr %17, %1 : tensor<4096x!tt.ptr<f16>>, tensor<4096xi32> loc(#loc16)
    %19 = tt.load %18, %3, %cst : tensor<4096x!tt.ptr<f16>> loc(#loc17)
    %20 = arith.extf %19 : tensor<4096xf16> to tensor<4096xf32> loc(#loc18)
    %21 = tt.load %8 : !tt.ptr<f32> loc(#loc19)
    %22 = tt.splat %21 : f32 -> tensor<4096xf32> loc(#loc20)
    %23 = arith.mulf %16, %22 : tensor<4096xf32> loc(#loc20)
    %24 = arith.mulf %12, %20 : tensor<4096xf32> loc(#loc21)
    %25 = arith.mulf %24, %23 : tensor<4096xf32> loc(#loc22)
    %26 = "tt.reduce"(%25) <{axis = 0 : i32}> ({
    ^bb0(%arg10: f32 loc(unknown), %arg11: f32 loc(unknown)):
      %37 = arith.addf %arg10, %arg11 : f32 loc(#loc35)
      tt.reduce.return %37 : f32 loc(#loc33)
    }) : (tensor<4096xf32>) -> f32 loc(#loc33)
    %27 = arith.sitofp %arg8 : i32 to f32 loc(#loc26)
    %28 = arith.divf %21, %27 : f32 loc(#loc26)
    %29 = tt.splat %27 : f32 -> tensor<4096xf32> loc(#loc27)
    %30 = arith.mulf %29, %24 : tensor<4096xf32> loc(#loc27)
    %31 = tt.splat %26 : f32 -> tensor<4096xf32> loc(#loc28)
    %32 = arith.mulf %23, %31 : tensor<4096xf32> loc(#loc28)
    %33 = arith.subf %30, %32 : tensor<4096xf32> loc(#loc29)
    %34 = tt.splat %28 : f32 -> tensor<4096xf32> loc(#loc30)
    %35 = arith.mulf %34, %33 : tensor<4096xf32> loc(#loc30)
    %36 = arith.truncf %35 : tensor<4096xf32> to tensor<4096xf16> loc(#loc31)
    tt.store %10, %36, %3 : tensor<4096x!tt.ptr<f16>> loc(#loc31)
    tt.return loc(#loc32)
  } loc(#loc)
} loc(#loc)
#loc2 = loc("/home/zeus/miniconda3/envs/cloudspace/lib/python3.11/site-packages/unsloth/kernels/rms_layernorm.py":74:28)
#loc3 = loc("/home/zeus/miniconda3/envs/cloudspace/lib/python3.11/site-packages/unsloth/kernels/rms_layernorm.py":75:31)
#loc4 = loc("/home/zeus/miniconda3/envs/cloudspace/lib/python3.11/site-packages/unsloth/kernels/rms_layernorm.py":76:25)
#loc5 = loc("/home/zeus/miniconda3/envs/cloudspace/lib/python3.11/site-packages/unsloth/kernels/rms_layernorm.py":78:20)
#loc6 = loc("/home/zeus/miniconda3/envs/cloudspace/lib/python3.11/site-packages/unsloth/kernels/rms_layernorm.py":78:10)
#loc7 = loc("/home/zeus/miniconda3/envs/cloudspace/lib/python3.11/site-packages/unsloth/kernels/rms_layernorm.py":79:21)
#loc8 = loc("/home/zeus/miniconda3/envs/cloudspace/lib/python3.11/site-packages/unsloth/kernels/rms_layernorm.py":79:10)
#loc9 = loc("/home/zeus/miniconda3/envs/cloudspace/lib/python3.11/site-packages/unsloth/kernels/rms_layernorm.py":80:10)
#loc10 = loc("/home/zeus/miniconda3/envs/cloudspace/lib/python3.11/site-packages/unsloth/kernels/rms_layernorm.py":85:26)
#loc11 = loc("/home/zeus/miniconda3/envs/cloudspace/lib/python3.11/site-packages/unsloth/kernels/rms_layernorm.py":85:21)
#loc12 = loc("/home/zeus/miniconda3/envs/cloudspace/lib/python3.11/site-packages/unsloth/kernels/rms_layernorm.py":85:66)
#loc13 = loc("/home/zeus/miniconda3/envs/cloudspace/lib/python3.11/site-packages/unsloth/kernels/rms_layernorm.py":86:26)
#loc14 = loc("/home/zeus/miniconda3/envs/cloudspace/lib/python3.11/site-packages/unsloth/kernels/rms_layernorm.py":86:21)
#loc15 = loc("/home/zeus/miniconda3/envs/cloudspace/lib/python3.11/site-packages/unsloth/kernels/rms_layernorm.py":86:66)
#loc16 = loc("/home/zeus/miniconda3/envs/cloudspace/lib/python3.11/site-packages/unsloth/kernels/rms_layernorm.py":87:26)
#loc17 = loc("/home/zeus/miniconda3/envs/cloudspace/lib/python3.11/site-packages/unsloth/kernels/rms_layernorm.py":87:21)
#loc18 = loc("/home/zeus/miniconda3/envs/cloudspace/lib/python3.11/site-packages/unsloth/kernels/rms_layernorm.py":87:66)
#loc19 = loc("/home/zeus/miniconda3/envs/cloudspace/lib/python3.11/site-packages/unsloth/kernels/rms_layernorm.py":90:22)
#loc20 = loc("/home/zeus/miniconda3/envs/cloudspace/lib/python3.11/site-packages/unsloth/kernels/rms_layernorm.py":91:21)
#loc21 = loc("/home/zeus/miniconda3/envs/cloudspace/lib/python3.11/site-packages/unsloth/kernels/rms_layernorm.py":94:30)
#loc22 = loc("/home/zeus/miniconda3/envs/cloudspace/lib/python3.11/site-packages/unsloth/kernels/rms_layernorm.py":96:37)
#loc23 = loc("/home/zeus/miniconda3/envs/cloudspace/lib/python3.11/site-packages/triton/language/standard.py":267:36)
#loc24 = loc("/home/zeus/miniconda3/envs/cloudspace/lib/python3.11/site-packages/unsloth/kernels/rms_layernorm.py":96:30)
#loc25 = loc("/home/zeus/miniconda3/envs/cloudspace/lib/python3.11/site-packages/triton/language/standard.py":256:15)
#loc26 = loc("/home/zeus/miniconda3/envs/cloudspace/lib/python3.11/site-packages/unsloth/kernels/rms_layernorm.py":97:21)
#loc27 = loc("/home/zeus/miniconda3/envs/cloudspace/lib/python3.11/site-packages/unsloth/kernels/rms_layernorm.py":97:38)
#loc28 = loc("/home/zeus/miniconda3/envs/cloudspace/lib/python3.11/site-packages/unsloth/kernels/rms_layernorm.py":97:52)
#loc29 = loc("/home/zeus/miniconda3/envs/cloudspace/lib/python3.11/site-packages/unsloth/kernels/rms_layernorm.py":97:45)
#loc30 = loc("/home/zeus/miniconda3/envs/cloudspace/lib/python3.11/site-packages/unsloth/kernels/rms_layernorm.py":97:31)
#loc31 = loc("/home/zeus/miniconda3/envs/cloudspace/lib/python3.11/site-packages/unsloth/kernels/rms_layernorm.py":98:31)
#loc32 = loc("/home/zeus/miniconda3/envs/cloudspace/lib/python3.11/site-packages/unsloth/kernels/rms_layernorm.py":98:4)
#loc33 = loc(callsite(#loc23 at #loc24))
#loc34 = loc(callsite(#loc25 at #loc23))
#loc35 = loc(callsite(#loc34 at #loc24))
