#loc = loc("/home/zeus/miniconda3/envs/cloudspace/lib/python3.11/site-packages/unsloth/kernels/rope_embedding.py":23:0)
module {
  tt.func public @_rope_embedding(%arg0: !tt.ptr<f16> {tt.divisibility = 16 : i32} loc("/home/zeus/miniconda3/envs/cloudspace/lib/python3.11/site-packages/unsloth/kernels/rope_embedding.py":23:0), %arg1: i32 {tt.divisibility = 16 : i32} loc("/home/zeus/miniconda3/envs/cloudspace/lib/python3.11/site-packages/unsloth/kernels/rope_embedding.py":23:0), %arg2: !tt.ptr<f16> {tt.divisibility = 16 : i32} loc("/home/zeus/miniconda3/envs/cloudspace/lib/python3.11/site-packages/unsloth/kernels/rope_embedding.py":23:0), %arg3: i32 {tt.divisibility = 16 : i32} loc("/home/zeus/miniconda3/envs/cloudspace/lib/python3.11/site-packages/unsloth/kernels/rope_embedding.py":23:0), %arg4: !tt.ptr<f16> {tt.divisibility = 16 : i32} loc("/home/zeus/miniconda3/envs/cloudspace/lib/python3.11/site-packages/unsloth/kernels/rope_embedding.py":23:0), %arg5: i32 {tt.divisibility = 16 : i32} loc("/home/zeus/miniconda3/envs/cloudspace/lib/python3.11/site-packages/unsloth/kernels/rope_embedding.py":23:0), %arg6: i32 {tt.divisibility = 16 : i32} loc("/home/zeus/miniconda3/envs/cloudspace/lib/python3.11/site-packages/unsloth/kernels/rope_embedding.py":23:0)) attributes {noinline = false} {
    %c1_i32 = arith.constant 1 : i32 loc(#loc1)
    %c128_i32 = arith.constant 128 : i32 loc(#loc1)
    %c8_i32 = arith.constant 8 : i32 loc(#loc1)
    %cst = arith.constant dense<0.000000e+00> : tensor<64xf16> loc(#loc1)
    %c0_i32 = arith.constant 0 : i32 loc(#loc1)
    %cst_0 = arith.constant dense<64> : tensor<64xi32> loc(#loc1)
    %c4_i32 = arith.constant 4 : i32 loc(#loc2)
    %0 = tt.get_program_id x : i32 loc(#loc3)
    %1 = tt.get_program_id y : i32 loc(#loc4)
    %2 = tt.make_range {end = 64 : i32, start = 0 : i32} : tensor<64xi32> loc(#loc5)
    %3 = arith.cmpi slt, %2, %cst_0 : tensor<64xi32> loc(#loc6)
    %4 = arith.remsi %0, %arg6 : i32 loc(#loc7)
    %5 = arith.muli %4, %arg5 : i32 loc(#loc8)
    %6 = tt.addptr %arg4, %5 : !tt.ptr<f16>, i32 loc(#loc9)
    %7 = tt.addptr %6, %c0_i32 : !tt.ptr<f16>, i32 loc(#loc10)
    %8 = tt.splat %7 : !tt.ptr<f16> -> tensor<64x!tt.ptr<f16>> loc(#loc11)
    %9 = tt.addptr %8, %2 : tensor<64x!tt.ptr<f16>>, tensor<64xi32> loc(#loc11)
    %10 = tt.load %9, %3, %cst : tensor<64x!tt.ptr<f16>> loc(#loc12)
    %11 = arith.muli %4, %arg3 : i32 loc(#loc13)
    %12 = tt.addptr %arg2, %11 : !tt.ptr<f16>, i32 loc(#loc14)
    %13 = tt.addptr %12, %c0_i32 : !tt.ptr<f16>, i32 loc(#loc15)
    %14 = tt.splat %13 : !tt.ptr<f16> -> tensor<64x!tt.ptr<f16>> loc(#loc16)
    %15 = tt.addptr %14, %2 : tensor<64x!tt.ptr<f16>>, tensor<64xi32> loc(#loc16)
    %16 = tt.load %15, %3, %cst : tensor<64x!tt.ptr<f16>> loc(#loc17)
    %17 = arith.subf %cst, %10 : tensor<64xf16> loc(#loc18)
    %18 = arith.muli %1, %c4_i32 : i32 loc(#loc19)
    %19 = arith.addi %18, %c4_i32 : i32 loc(#loc20)
    %20 = arith.minsi %19, %c8_i32 : i32 loc(#loc21)
    %21 = arith.muli %0, %arg1 : i32 loc(#loc22)
    %22 = tt.splat %arg0 : !tt.ptr<f16> -> tensor<64x!tt.ptr<f16>> loc(#loc23)
    scf.for %arg7 = %18 to %20 step %c1_i32  : i32 {
      %23 = arith.muli %arg7, %c128_i32 : i32 loc(#loc25)
      %24 = arith.addi %21, %23 : i32 loc(#loc26)
      %25 = tt.splat %24 : i32 -> tensor<64xi32> loc(#loc27)
      %26 = arith.addi %25, %2 : tensor<64xi32> loc(#loc27)
      %27 = arith.addi %26, %cst_0 : tensor<64xi32> loc(#loc28)
      %28 = tt.addptr %22, %26 : tensor<64x!tt.ptr<f16>>, tensor<64xi32> loc(#loc23)
      %29 = tt.load %28, %3, %cst : tensor<64x!tt.ptr<f16>> loc(#loc29)
      %30 = tt.addptr %22, %27 : tensor<64x!tt.ptr<f16>>, tensor<64xi32> loc(#loc30)
      %31 = tt.load %30, %3, %cst : tensor<64x!tt.ptr<f16>> loc(#loc31)
      %32 = arith.mulf %29, %16 : tensor<64xf16> loc(#loc32)
      %33 = arith.mulf %31, %17 : tensor<64xf16> loc(#loc33)
      %34 = arith.subf %32, %33 : tensor<64xf16> loc(#loc34)
      tt.store %28, %34, %3 : tensor<64x!tt.ptr<f16>> loc(#loc35)
      %35 = arith.mulf %31, %16 : tensor<64xf16> loc(#loc36)
      %36 = arith.mulf %29, %17 : tensor<64xf16> loc(#loc37)
      %37 = arith.addf %35, %36 : tensor<64xf16> loc(#loc38)
      tt.store %30, %37, %3 : tensor<64x!tt.ptr<f16>> loc(#loc39)
    } loc(#loc24)
    tt.return loc(#loc40)
  } loc(#loc)
} loc(#loc)
#loc1 = loc(unknown)
#loc2 = loc("/home/zeus/miniconda3/envs/cloudspace/lib/python3.11/site-packages/unsloth/kernels/rope_embedding.py":38:22)
#loc3 = loc("/home/zeus/miniconda3/envs/cloudspace/lib/python3.11/site-packages/unsloth/kernels/rope_embedding.py":39:34)
#loc4 = loc("/home/zeus/miniconda3/envs/cloudspace/lib/python3.11/site-packages/unsloth/kernels/rope_embedding.py":40:40)
#loc5 = loc("/home/zeus/miniconda3/envs/cloudspace/lib/python3.11/site-packages/unsloth/kernels/rope_embedding.py":41:32)
#loc6 = loc("/home/zeus/miniconda3/envs/cloudspace/lib/python3.11/site-packages/unsloth/kernels/rope_embedding.py":43:25)
#loc7 = loc("/home/zeus/miniconda3/envs/cloudspace/lib/python3.11/site-packages/unsloth/kernels/rope_embedding.py":45:41)
#loc8 = loc("/home/zeus/miniconda3/envs/cloudspace/lib/python3.11/site-packages/unsloth/kernels/rope_embedding.py":45:49)
#loc9 = loc("/home/zeus/miniconda3/envs/cloudspace/lib/python3.11/site-packages/unsloth/kernels/rope_embedding.py":45:25)
#loc10 = loc("/home/zeus/miniconda3/envs/cloudspace/lib/python3.11/site-packages/unsloth/kernels/rope_embedding.py":46:19)
#loc11 = loc("/home/zeus/miniconda3/envs/cloudspace/lib/python3.11/site-packages/unsloth/kernels/rope_embedding.py":46:37)
#loc12 = loc("/home/zeus/miniconda3/envs/cloudspace/lib/python3.11/site-packages/unsloth/kernels/rope_embedding.py":45:19)
#loc13 = loc("/home/zeus/miniconda3/envs/cloudspace/lib/python3.11/site-packages/unsloth/kernels/rope_embedding.py":47:49)
#loc14 = loc("/home/zeus/miniconda3/envs/cloudspace/lib/python3.11/site-packages/unsloth/kernels/rope_embedding.py":47:25)
#loc15 = loc("/home/zeus/miniconda3/envs/cloudspace/lib/python3.11/site-packages/unsloth/kernels/rope_embedding.py":48:19)
#loc16 = loc("/home/zeus/miniconda3/envs/cloudspace/lib/python3.11/site-packages/unsloth/kernels/rope_embedding.py":48:37)
#loc17 = loc("/home/zeus/miniconda3/envs/cloudspace/lib/python3.11/site-packages/unsloth/kernels/rope_embedding.py":47:19)
#loc18 = loc("/home/zeus/miniconda3/envs/cloudspace/lib/python3.11/site-packages/unsloth/kernels/rope_embedding.py":52:16)
#loc19 = loc("/home/zeus/miniconda3/envs/cloudspace/lib/python3.11/site-packages/unsloth/kernels/rope_embedding.py":56:39)
#loc20 = loc("/home/zeus/miniconda3/envs/cloudspace/lib/python3.11/site-packages/unsloth/kernels/rope_embedding.py":57:33)
#loc21 = loc("/home/zeus/miniconda3/envs/cloudspace/lib/python3.11/site-packages/unsloth/kernels/rope_embedding.py":57:51)
#loc22 = loc("/home/zeus/miniconda3/envs/cloudspace/lib/python3.11/site-packages/unsloth/kernels/rope_embedding.py":61:33)
#loc23 = loc("/home/zeus/miniconda3/envs/cloudspace/lib/python3.11/site-packages/unsloth/kernels/rope_embedding.py":65:25)
#loc24 = loc("/home/zeus/miniconda3/envs/cloudspace/lib/python3.11/site-packages/unsloth/kernels/rope_embedding.py":60:31)
#loc25 = loc("/home/zeus/miniconda3/envs/cloudspace/lib/python3.11/site-packages/unsloth/kernels/rope_embedding.py":61:52)
#loc26 = loc("/home/zeus/miniconda3/envs/cloudspace/lib/python3.11/site-packages/unsloth/kernels/rope_embedding.py":61:48)
#loc27 = loc("/home/zeus/miniconda3/envs/cloudspace/lib/python3.11/site-packages/unsloth/kernels/rope_embedding.py":61:63)
#loc28 = loc("/home/zeus/miniconda3/envs/cloudspace/lib/python3.11/site-packages/unsloth/kernels/rope_embedding.py":62:77)
#loc29 = loc("/home/zeus/miniconda3/envs/cloudspace/lib/python3.11/site-packages/unsloth/kernels/rope_embedding.py":65:21)
#loc30 = loc("/home/zeus/miniconda3/envs/cloudspace/lib/python3.11/site-packages/unsloth/kernels/rope_embedding.py":66:25)
#loc31 = loc("/home/zeus/miniconda3/envs/cloudspace/lib/python3.11/site-packages/unsloth/kernels/rope_embedding.py":66:21)
#loc32 = loc("/home/zeus/miniconda3/envs/cloudspace/lib/python3.11/site-packages/unsloth/kernels/rope_embedding.py":68:33)
#loc33 = loc("/home/zeus/miniconda3/envs/cloudspace/lib/python3.11/site-packages/unsloth/kernels/rope_embedding.py":68:43)
#loc34 = loc("/home/zeus/miniconda3/envs/cloudspace/lib/python3.11/site-packages/unsloth/kernels/rope_embedding.py":68:40)
#loc35 = loc("/home/zeus/miniconda3/envs/cloudspace/lib/python3.11/site-packages/unsloth/kernels/rope_embedding.py":68:30)
#loc36 = loc("/home/zeus/miniconda3/envs/cloudspace/lib/python3.11/site-packages/unsloth/kernels/rope_embedding.py":69:33)
#loc37 = loc("/home/zeus/miniconda3/envs/cloudspace/lib/python3.11/site-packages/unsloth/kernels/rope_embedding.py":69:43)
#loc38 = loc("/home/zeus/miniconda3/envs/cloudspace/lib/python3.11/site-packages/unsloth/kernels/rope_embedding.py":69:40)
#loc39 = loc("/home/zeus/miniconda3/envs/cloudspace/lib/python3.11/site-packages/unsloth/kernels/rope_embedding.py":69:30)
#loc40 = loc("/home/zeus/miniconda3/envs/cloudspace/lib/python3.11/site-packages/unsloth/kernels/rope_embedding.py":70:4)
