#loc = loc("/home/zeus/miniconda3/envs/cloudspace/lib/python3.11/site-packages/unsloth/kernels/swiglu.py":22:0)
module {
  tt.func public @_fg_kernel(%arg0: !tt.ptr<f16> {tt.divisibility = 16 : i32} loc("/home/zeus/miniconda3/envs/cloudspace/lib/python3.11/site-packages/unsloth/kernels/swiglu.py":22:0), %arg1: !tt.ptr<f16> {tt.divisibility = 16 : i32} loc("/home/zeus/miniconda3/envs/cloudspace/lib/python3.11/site-packages/unsloth/kernels/swiglu.py":22:0), %arg2: !tt.ptr<f16> {tt.divisibility = 16 : i32} loc("/home/zeus/miniconda3/envs/cloudspace/lib/python3.11/site-packages/unsloth/kernels/swiglu.py":22:0), %arg3: i32 {tt.divisibility = 16 : i32} loc("/home/zeus/miniconda3/envs/cloudspace/lib/python3.11/site-packages/unsloth/kernels/swiglu.py":22:0)) attributes {noinline = false} {
    %cst = arith.constant dense<0.000000e+00> : tensor<1024xf32> loc(#loc1)
    %cst_0 = arith.constant dense<1.000000e+00> : tensor<1024xf32> loc(#loc1)
    %cst_1 = arith.constant dense<0.000000e+00> : tensor<1024xf16> loc(#loc1)
    %c1024_i32 = arith.constant 1024 : i32 loc(#loc1)
    %0 = tt.get_program_id x : i32 loc(#loc2)
    %1 = arith.muli %0, %c1024_i32 : i32 loc(#loc3)
    %2 = tt.make_range {end = 1024 : i32, start = 0 : i32} : tensor<1024xi32> loc(#loc4)
    %3 = tt.splat %1 : i32 -> tensor<1024xi32> loc(#loc5)
    %4 = arith.addi %3, %2 : tensor<1024xi32> loc(#loc5)
    %5 = tt.splat %arg3 : i32 -> tensor<1024xi32> loc(#loc6)
    %6 = arith.cmpi slt, %4, %5 : tensor<1024xi32> loc(#loc6)
    %7 = tt.splat %arg0 : !tt.ptr<f16> -> tensor<1024x!tt.ptr<f16>> loc(#loc7)
    %8 = tt.addptr %7, %4 : tensor<1024x!tt.ptr<f16>>, tensor<1024xi32> loc(#loc7)
    %9 = tt.load %8, %6, %cst_1 : tensor<1024x!tt.ptr<f16>> loc(#loc8)
    %10 = arith.extf %9 : tensor<1024xf16> to tensor<1024xf32> loc(#loc9)
    %11 = tt.splat %arg1 : !tt.ptr<f16> -> tensor<1024x!tt.ptr<f16>> loc(#loc10)
    %12 = tt.addptr %11, %4 : tensor<1024x!tt.ptr<f16>>, tensor<1024xi32> loc(#loc10)
    %13 = tt.load %12, %6, %cst_1 : tensor<1024x!tt.ptr<f16>> loc(#loc11)
    %14 = arith.subf %cst, %10 : tensor<1024xf32> loc(#loc23)
    %15 = math.exp %14 : tensor<1024xf32> loc(#loc24)
    %16 = arith.addf %15, %cst_0 : tensor<1024xf32> loc(#loc25)
    %17 = arith.divf %cst_0, %16 : tensor<1024xf32> loc(#loc26)
    %18 = arith.mulf %10, %17 : tensor<1024xf32> loc(#loc17)
    %19 = arith.truncf %18 : tensor<1024xf32> to tensor<1024xf16> loc(#loc18)
    %20 = arith.mulf %19, %13 : tensor<1024xf16> loc(#loc19)
    %21 = tt.splat %arg2 : !tt.ptr<f16> -> tensor<1024x!tt.ptr<f16>> loc(#loc20)
    %22 = tt.addptr %21, %4 : tensor<1024x!tt.ptr<f16>>, tensor<1024xi32> loc(#loc20)
    tt.store %22, %20, %6 : tensor<1024x!tt.ptr<f16>> loc(#loc21)
    tt.return loc(#loc22)
  } loc(#loc)
} loc(#loc)
#loc1 = loc(unknown)
#loc2 = loc("/home/zeus/miniconda3/envs/cloudspace/lib/python3.11/site-packages/unsloth/kernels/swiglu.py":23:30)
#loc3 = loc("/home/zeus/miniconda3/envs/cloudspace/lib/python3.11/site-packages/unsloth/kernels/swiglu.py":24:24)
#loc4 = loc("/home/zeus/miniconda3/envs/cloudspace/lib/python3.11/site-packages/unsloth/kernels/swiglu.py":24:50)
#loc5 = loc("/home/zeus/miniconda3/envs/cloudspace/lib/python3.11/site-packages/unsloth/kernels/swiglu.py":24:37)
#loc6 = loc("/home/zeus/miniconda3/envs/cloudspace/lib/python3.11/site-packages/unsloth/kernels/swiglu.py":25:21)
#loc7 = loc("/home/zeus/miniconda3/envs/cloudspace/lib/python3.11/site-packages/unsloth/kernels/swiglu.py":27:24)
#loc8 = loc("/home/zeus/miniconda3/envs/cloudspace/lib/python3.11/site-packages/unsloth/kernels/swiglu.py":27:20)
#loc9 = loc("/home/zeus/miniconda3/envs/cloudspace/lib/python3.11/site-packages/unsloth/kernels/swiglu.py":27:60)
#loc10 = loc("/home/zeus/miniconda3/envs/cloudspace/lib/python3.11/site-packages/unsloth/kernels/swiglu.py":28:24)
#loc11 = loc("/home/zeus/miniconda3/envs/cloudspace/lib/python3.11/site-packages/unsloth/kernels/swiglu.py":28:20)
#loc12 = loc("/home/zeus/miniconda3/envs/cloudspace/lib/python3.11/site-packages/triton/language/standard.py":51:30)
#loc13 = loc("/home/zeus/miniconda3/envs/cloudspace/lib/python3.11/site-packages/unsloth/kernels/swiglu.py":31:31)
#loc14 = loc("/home/zeus/miniconda3/envs/cloudspace/lib/python3.11/site-packages/triton/language/standard.py":51:29)
#loc15 = loc("/home/zeus/miniconda3/envs/cloudspace/lib/python3.11/site-packages/triton/language/standard.py":51:20)
#loc16 = loc("/home/zeus/miniconda3/envs/cloudspace/lib/python3.11/site-packages/triton/language/standard.py":51:16)
#loc17 = loc("/home/zeus/miniconda3/envs/cloudspace/lib/python3.11/site-packages/unsloth/kernels/swiglu.py":31:20)
#loc18 = loc("/home/zeus/miniconda3/envs/cloudspace/lib/python3.11/site-packages/unsloth/kernels/swiglu.py":32:21)
#loc19 = loc("/home/zeus/miniconda3/envs/cloudspace/lib/python3.11/site-packages/unsloth/kernels/swiglu.py":34:20)
#loc20 = loc("/home/zeus/miniconda3/envs/cloudspace/lib/python3.11/site-packages/unsloth/kernels/swiglu.py":37:17)
#loc21 = loc("/home/zeus/miniconda3/envs/cloudspace/lib/python3.11/site-packages/unsloth/kernels/swiglu.py":37:26)
#loc22 = loc("/home/zeus/miniconda3/envs/cloudspace/lib/python3.11/site-packages/unsloth/kernels/swiglu.py":37:4)
#loc23 = loc(callsite(#loc12 at #loc13))
#loc24 = loc(callsite(#loc14 at #loc13))
#loc25 = loc(callsite(#loc15 at #loc13))
#loc26 = loc(callsite(#loc16 at #loc13))
